ckpts/unitree_go2/flat_model_6800.pt (torch, 983394 bytes, 48 tensors)

std f4 [12]
00000000: 9b09 f73e 7763 f53e 687f eb3e e80d e93e
00000010: 224d 473f 02ef 4c3f b866 353f df47 333f
00000020: 4aff 433f 4019 4a3f 7b54 4e3f ac14 483f
0.48249516 0.47927448 0.4599564 0.45518422 0.7785207 0.80052197 0.7085986 0.7003154
0.76561415 0.7894478 0.80597657 0.7815654

actor.0.weight f4 [128, 48]
00000000: bd71 0d3e c00d bb3e 7f41 073f b5a2 0ebe
00000010: d4a6 4fbe 2435 5dbe a3ba 43bf 912b 433f
00000020: 3ebe 763e c860 e7be a43d d53d 67ac 1e3f
00000030: 5269 d7bf 56c2 e7bc 7b94 82bd d7a9 54bf
00000040: fa90 16bf 151f 183f f76c 38be 515a b6be
00000050: 17d2 66be 8350 683d 5283 a9bd 9035 bcbd
00000060: 7de6 f0bc 1aca 19bd 945f 00bc e9b7 4bbc
00000070: 69e2 ef3c 897a ab3c 472f d1bc b357 113d
00000080: 3568 0f3d f7fc c83c 9a44 a2bc 4caa 263d
00000090: 38e0 753c fbfb 0fbe a4f3 8dbd 060b 9cbe
000000a0: 3f0a 0d3d 79c5 7ebc 8408 823c 5911 e0bb
000000b0: d755 ba3c 9a53 c1bc 784a c23d 89ba 103d
000000c0: 88cc 35bf 8af8 a03d ead4 183f d490 7dbd
000000d0: 2cec f3bd 6fe0 debc a84a ff3e bb97 323f
000000e0: ecf5 b63d 01d2 1a3f 6bf7 763d 701f af3e
000000f0: 0ac2 a4bc 38c0 85bc fcca dcbb 05df f5be
00000100: f011 1d3e 8f31 3f3f 74ec 16bd 367e 783e
00000110: ccf1 79be 7302 2d3f 8863 353e ea12 8c3e
00000120: d9ab 83bc 4976 f2bc 6481 e1bc fc78 9b3c
00000130: d3c1 04bb 0cdc a5bc 46bc bdbc f652 aabc
00000140: d903 28bd 8576 b5bd 559e 973b 99d1 173c
00000150: e774 7fbc 055f cb3d e72a 813e ff8c a2bb
00000160: ab44 413e 9155 46be 82ab 123e a75b 283e
00000170: 1003 6f3d 6c68 53bd bed2 d6bd 348c 9dbd
00000180: 6842 abbe cf5c 973e ede3 fe3e 8ea1 983d
00000190: 9dd8 01be 084d cfbe bd32 1abd 14b0 40bf
000001a0: a170 793e 3a08 a43e 0d43 c0be 3e43 873e
000001b0: 04cd 9a3e 0d2f e4bd aaec 2e3f af3d 4d3e
000001c0: 5650 013f bdef 4d3e f1bc 26bf 71d6 173e
000001d0: a58f cf3d c17e d7be ff3b 8fbb 5c10 dc3c
000001e0: e135 b7bc 3a32 57bd fb76 343d b48d 2e3d
000001f0: 99d5 50bc e8a3 28bd 15eb 0ebd addc cb3c
00000200: 1b1c 113c 3482 a83c 41a7 da3b 109f 4a3d
00000210: 6703 2a3e 2459 953c 5c84 203d 8a2c b9bd
00000220: 0838 9f3b 4e89 1cbe ae2f 25be af91 efbd
00000230: d951 34bd 737c 3bbd 622d 913d 3d42 23be
00000240: 6838 853d 0e47 f2be 3a90 4a3f 6ce6 3b3d
00000250: 70cb 46be cf9d 2d3e a390 823e 9c8d a0be
00000260: 1347 cdbd c9ec 7a3c d0e4 453f 1a0b ecbe
00000270: 8ac0 923e cccf 023f 7483 e23e 4664 09be
00000280: 0984 233e 24c7 0dbe 6873 003e 6f52 f8be
00000290: caba 813e 2df8 083e 3ab4 e0bd 6270 1abd
000002a0: a75e f03c de0e 2f3d d56c 0e3d a3ab 81bd
000002b0: af5f 613c 6344 81bc 6cb9 5fbc c843 963d
000002c0: 1bbd 373c fd5b acbd 3070 2b3d 2052 bd3a
000002d0: 6662 923d cc5d 08bd ad79 00be 09c5 65bc
000002e0: 679e edbc 4077 d53d 0d25 2e3c e603 7a3d
000002f0: 4ad7 93bd 0255 b43d 9b85 0abe 2567 c93c
00000300: 4955 54be f7c8 3f3f 9d32 72bf 450b 59be
00000310: 58eb ac3c cd47 7abe 7bf8 c9be a037 9e3f
00000320: ed09 d3bd fd2f e03e 43d8 babe 74ef 59be
00000330: e806 08bf d3c1 4bbe f689 653e 13d7 7ebe
00000340: f669 d3be 4a43 1fbf 2933 d4bd 4767 93be
00000350: 00d9 893e c6d7 8abe 03c3 0d3e ea0d 963e
00000360: 4c29 64bb 1032 e7bc 9618 d9bb 40b0 5ebd
00000370: 9e3d f03b abb4 c23c ef9f 0fba 7854 b93c
00000380: 973b 303d be62 68bd 1074 21bc 2df6 dbbc
00000390: 376f 38be 2b39 193e b99b b6bd 3340 18bc
000003a0: 98c5 113d a6a3 9a3d 0f39 b3bc ad54 b83d
000003b0: 5534 58be 6d23 843d 31c0 683d ced3 c03d
000003c0: a365 74be 8f39 433e 385d a1bf 56dd 2f3e
000003d0: 03c9 273d 559a e5bc db87 2f3e 46c6 b8bf
000003e0: bffd 7e3e f649 7dbd 42c6 5ebe 1e3b 2bbf
000003f0: a14e 003f 34f1 773f 0098 e43d 6727 3dbe
0.13812919 0.36533928 0.52834314 -0.13929255 -0.20278484 -0.21602303 -0.7645666 0.7623835
0.24096009 -0.45191026 0.10412148 0.61981815 -1.6829016 -0.028290909 -0.06375977 -0.83071655
-0.58814967 0.5942243 -0.18010317 -0.3561578 -0.2254108 0.056717407 -0.082770005 -0.09189904
-0.02940678 -0.037546255 -0.007835288 -0.012433984 0.029282765 0.020932453 -0.025535239 0.035484027
0.03501149 0.024534686 -0.019808102 0.04068975 0.015007071 -0.14060967 -0.069312364 -0.3047716
0.0344336 -0.015550011 0.015873201 -0.0068380055 0.02274601 -0.023599435 0.0948686 0.035334144
-0.71015215 0.07859905 0.5969988 -0.061905697 -0.119102806 -0.027206628 0.49861646 0.6976277
0.089336246 0.6047669 0.06029455 0.34203672 -0.020112056 -0.016327009 -0.006738065 -0.48021713
0.15338874 0.74684995 -0.036846593 0.24266896 -0.24408644 0.6758186 0.1771375 0.2735818
-0.016073154 -0.029597418 -0.027527519 0.018978588 -0.002025713 -0.020246528 -0.023161065 -0.020791512
-0.041019294 -0.088604964 0.004627029 0.009266281 -0.015591837 0.09930233 0.25228044 -0.0049606557
0.18873851 -0.19368578 0.14323238 0.16441213 0.05835253 -0.051613256 -0.10489415 -0.07692757
-0.334491 0.29562995 0.4978327 0.07452689 -0.12680288 -0.40488458 -0.037646044 -0.75268674
0.24359371 0.32037526 -0.37551156 0.2641849 0.3023454 -0.11141787 0.6832987 0.20043062
0.5051321 0.20110984 -0.6513205 0.14827897 0.1013482 -0.42088893 -0.0043711658 0.02686327
-0.022364559 -0.052538134 0.04405878 0.042615607 -0.012746238 -0.04117194 -0.03489216 0.0248855
0.0088567985 0.020569898 0.0066727703 0.0494681 0.1660286 0.018230982 0.039188728 -0.09041698
0.0048589744 -0.15286753 -0.1613147 -0.11697709 -0.04402337 -0.04577298 0.07088734 -0.15943237
0.06504899 -0.47319835 0.7912632 0.045874044 -0.19413543 0.1695473 0.25500974 -0.3135804
-0.10023322 0.015315243 0.77302265 -0.4610222 0.2866252 0.5109832 0.44240916 -0.13417158
0.15968336 -0.13845497 0.12544024 -0.48500392 0.2533782 0.13375922 -0.109718755 -0.037704833
0.029342009 0.042738788 0.03477176 -0.06331565 0.013755723 -0.01577968 -0.013655048 0.07337147
0.01121452 -0.08415983 0.041855037 0.0014444031 0.07147674 -0.033292577 -0.12546416 -0.014024028
-0.029006196 0.10423136 0.010628951 0.061038874 -0.072187975 0.088052765 -0.13527529 0.024585316
-0.20735659 0.74916023 -0.9460848 -0.21195705 0.021108314 -0.24441452 -0.39447388 1.2360725
-0.103046276 0.43786612 -0.3649312 -0.2128275 -0.5313554 -0.19898157 0.22415909 -0.24886732
-0.4129178 -0.6221205 -0.103613205 -0.28789732 0.2692337 -0.27117747 0.13843922 0.2930749
-0.0034814654 -0.028222114 -0.0066252453 -0.054367304 0.007331564 0.02376779 -0.0005478849 0.022623286
0.04302558 -0.056734793 -0.009854332 -0.026850784 -0.18011175 0.14963214 -0.089164205 -0.00929265
0.03558883 0.07550745 -0.021877794 0.090005256 -0.21113713 0.064520694 0.056823913 0.094153985
-0.23866896 0.19064926 -1.2606573 0.17174277 0.040963184 -0.028027693 0.17141668 -1.4435508
0.24901484 -0.061838113 -0.21755317 -0.6688708 0.5011998 0.9685242 0.11161804 -0.18472062

actor.0.bias f4 [128]
00000000: aa43 9cbe 7693 98bb 050d 78bc f40e 203e
00000010: a1a0 bf3e e87c 67be 8acc fe3b 8766 d33d
00000020: 8b34 223d 17f4 4abe 82e1 0cbe 2fd3 903e
00000030: a481 81be 3b14 943d 6535 703e b8f6 103d
00000040: 251d a03e 3d7e 86be a6d8 833e f875 1e3e
00000050: fbd2 87be 7ebe d23d 0f4c c8bd 0869 91be
00000060: 51bf 90bd 117e 44be 8010 05be 86c2 65be
00000070: c28c 21bd 664f 003c f24f 34be 09c8 323e
00000080: 9d20 043e f817 e3bd f705 e73d e654 283e
00000090: ff8c 0a3f 168b 353d 8a02 87be 9732 1c3e
000000a0: e4cf 423e b3fc 41bd e15a 903b 466c 09bd
000000b0: c6b4 e5be cccb 123e 672a 5f3e 7d18 033e
000000c0: e794 1bbe 0032 393e 08be f6bc 244c b53d
000000d0: 20ee 7a3e c4a2 213e 6ba6 1fbe 51a4 613e
000000e0: e5b2 293e 6d99 49be bf3f 10be 450b 0c3e
000000f0: 3d2f 3b3e 16db 873e 560c 89bc 1cb9 323e
00000100: b805 d2be d5de 8bbe ed15 fbbd 1e45 c9bd
00000110: 7525 8abd ec4b 43be a758 16be 59f7 893e
00000120: 4a48 933c 5b03 a73b 4043 573d a8d5 613e
00000130: e9d7 833c bcdc c6bd a110 043d a8eb a43d
00000140: 3c2e c4bd eb41 743d b4b8 0fbd 79e1 e0be
00000150: fb21 aabd 1698 64be 383a 2a3e ce51 91be
00000160: 259c 933e da7f c33d bfda aabd be04 80be
00000170: 4a07 00be a49c dd3d 3588 ef3c 1342 d53e
00000180: 9d09 d6be a44f 0cbe a8e0 75be 7ced ce3c
00000190: 99f6 0f3e b2f9 0cbe 4eac 22bd 5964 cfbc
000001a0: b60c 643c e077 493e 78dc 92bc b2c1 90bd
000001b0: 647a f0bd c732 60bd 535e f7bd 27a2 183e
000001c0: e7fe 4e3e 37f7 41be 35d3 80be 9ad7 7d3e
000001d0: b964 25be 0169 afbe c457 3ebe 7082 23be
000001e0: 2c3f f5bd 9f60 783e c40e 803e 0395 583e
000001f0: 2402 d0bd 0f27 80bc 4749 2d3c 958a 0a3e
-0.30520374 -0.0046562506 -0.015139823 0.15630704 0.37427238 -0.22606242 0.007775848 0.1032229
0.03960089 -0.19819675 -0.137579 0.2828612 -0.2529422 0.07230421 0.23457868 0.03539154
0.31272236 -0.26268187 0.25751227 0.15474689 -0.26528153 0.1029024 -0.09780132 -0.28400445
-0.07067741 -0.19188716 -0.12994576 -0.22437486 -0.039440878 0.00783143 -0.17608622 0.1745912
0.12903066 -0.11088556 0.112804346 0.16438636 0.5412139 0.044322096 -0.26369125 0.15253673
0.19024616 -0.047360133 0.004405365 -0.033550523 -0.44864482 0.14335555 0.21793519 0.1280231
-0.1519352 0.1808548 -0.03011991 0.08852413 0.245049 0.15784746 -0.15590827 0.22035338
0.16572149 -0.19687434 -0.14086817 0.13676174 0.18279739 0.26534337 -0.016729515 0.17453426
-0.41019988 -0.27318445 -0.122600414 -0.09827636 -0.067454256 -0.1907193 -0.14682256 0.26946524
0.017978806 0.0050968355 0.05255437 0.2205416 0.016094165 -0.097100705 0.03224242 0.0805276
-0.09579131 0.059633177 -0.035088256 -0.43922022 -0.083072625 -0.22323641 0.16623771 -0.28382725
0.28830066 0.0954587 -0.08342504 -0.25003618 -0.1250278 0.108208925 0.029239753 0.41651973
-0.4180421 -0.13702255 -0.24011481 0.025259726 0.14058913 -0.13767126 -0.039715104 -0.025316404
0.013919046 0.19674635 -0.017927393 -0.070681944 -0.11742094 -0.054735925 -0.12078538 0.14905606
0.20214425 -0.18941961 -0.25161138 0.24789277 -0.16151704 -0.342598 -0.18588167 -0.15967727
-0.1197494 0.24255608 0.25011265 0.21150593 -0.10156658 -0.015643625 0.010576553 0.13529427

actor.2.weight f4 [128, 128]
00000000: 5087 e5bd 6015 b33d 17fd ab3b 3d9c ffbd
00000010: 35d6 1cbe 3c50 3e3d b68e 0fbe c82a 6f3d
00000020: 9dd2 1a3e 2eac c43d b6ec c03d 98bf f6bc
00000030: 892f a4bd f1ad dd3c 7653 ce3d 8324 03be
00000040: e636 903d 7fc2 923c 5732 e93c c75a a6bd
00000050: 1bf1 2fbe 2800 33be d275 0b3d 611e 163d
00000060: 60a7 f33d 7d20 22bc 3784 0cbe 1768 043e
00000070: 9e90 863d de68 9f3d 2e61 35be 100c ea3d
00000080: 75cb 23be 7a42 27bd e122 3dbe e060 d3be
00000090: ab18 023d 2ff6 1e3e 4b87 883d 7728 d6bb
000000a0: d7dc 9abe 588c bebc 0658 7c3d deb7 0a3e
000000b0: 28b0 4a3c 1eac 2dbd ad03 a9bd a714 30bd
000000c0: 9a93 f53c f8bc e4bd efd2 21be cdd7 703d
000000d0: 2a82 ddbc 514b acbd 7ff4 69be ca75 033e
000000e0: cdeb 18bd cc77 7c3d 8db6 cfbd 8a57 20be
000000f0: 1db1 bfbd 9c80 58be 968f 2bbd 4a13 16be
00000100: 0597 aabd 180c 963d d883 853e f623 00be
00000110: ac71 f4bd f1cd 2b3e da4a 0abe a878 b03c
00000120: 686c 61bd 21f4 cbbd 4afd 8c3d 9d1d 28be
00000130: 0578 89bd a540 99bd f9c9 8abe 34d2 903c
00000140: 9355 27bd 3f76 1b3e b34c f8bd 5870 853c
00000150: c654 b63d bc43 0a3d 28e0 b5bc 22ba cb3c
00000160: f73f a0bd 2db8 e4bd 74e7 143c bc43 8e3a
00000170: 7841 d03d eddc c83c 5577 923d 6aa8 8f3d
00000180: 4203 b53d f3c9 2cbe 9236 8a3e 1230 2a3d
00000190: 883e c0bc 9391 b0ba ea8b c33d eb5e 57be
000001a0: 9834 9f3e 35af d6bd 65f9 663e 338e d8bc
000001b0: 7945 e53b 33c5 8e3d e02d dbbd b604 0e3e
000001c0: 1903 533d a12b 133e 6683 6ebb 3133 dfbc
000001d0: fd12 d1bd bcb3 263d 579b 74bd 259b 173e
000001e0: e718 ab3d bbeb d7bd b476 f63c bb48 f6bc
000001f0: de06 6639 05b7 d3bd 0d28 69bd 7fb8 0fbd
00000200: 9e9e 613e 30db 643e dba3 07be 033b 57be
00000210: e575 c73d e774 da3d 6575 343e 9c79 37bd
00000220: b3f8 0dbd 5ac7 eebc c6ed ef3b 3ed7 4b3d
00000230: 0a74 4d3e 6da9 e1bd d4aa 92be fdf9 b03c
00000240: 6400 9e3c f3c1 6f3d f2d5 e6bd fc26 1dbd
00000250: a79e 2e3e 1db0 81be 967e 4a3c df8f 613c
00000260: 8667 aa3e 491d bebe 7935 1bbd 8421 253e
00000270: dc1a cebd 0488 b1bd a4b9 02bc b08c c93d
00000280: e0b5 073e 287d 1a3e 4f37 38be 57c5 d2be
00000290: b241 58bd 8fab 953c 925d 623e 796c 18bd
000002a0: 09f2 afbd 814d 7fbe 9601 2f3e dfe2 f23c
000002b0: 4499 133d b0ea 8ebd 72d2 8cbe aa0a 3c3d
000002c0: 4094 74be 017b 063d d4a8 f5bc ab1a a73d
000002d0: a2e5 1b3e 49d7 9fbd 8a61 923d ef97 2abe
000002e0: 25fd 74be 0fae 993e ab8b babd 2390 09be
000002f0: 6710 ba3d 0c39 d9be 3aa3 e4bc ec90 99bc
00000300: c719 053d 83c6 003d 808c 5e3e 4b77 b73c
00000310: c147 5bbd 3809 473e b1bb 0ebd 8c6f 14be
00000320: aa03 c43d 27f3 2bbe b74e 89be a841 93bd
00000330: 4b19 a83d d394 b4bd a706 43bb 6539 abbd
00000340: 6f13 dd3d 1488 873e a1ae 29be db99 0f3d
00000350: 27d8 b83e d1c6 453d da21 0c3e 1986 063e
00000360: 5d00 dabb 84d6 a3bc a649 b8bc ed70 963e
00000370: c50d 003e adcd 2cbe 66e2 e3bc c9a1 81bd
00000380: 6eeb d23c 0708 fbbb 75fb 033e 2da2 c23d
00000390: 834f 23bd 2515 0c3e 81ae 4e3b 8c8b 2bbb
000003a0: 354d a9b9 5834 a73d e948 bfbb 58fb 89be
000003b0: a6e4 53bc 9f50 03be ca6f bfbd 248a fa3d
000003c0: 04d2 523e 2541 783e d239 4fbd 5075 53be
000003d0: eb84 f73d 204d c93b 6293 973e c746 053d
000003e0: fa8f cf3d 8d1c 92be 1372 1ebe 1a81 46be
000003f0: ec84 03bd d0b1 6fbe 5c89 cabc d141 233d
-0.112074494 0.08744311 0.0052486765 -0.12480972 -0.15316088 0.046463236 -0.14019284 0.05839041
0.15119405 0.09603153 0.09420149 -0.030120656 -0.08016879 0.02706048 0.10074513 -0.12806897
0.07041721 0.017915009 0.028466387 -0.08122783 -0.17181818 -0.17480528 0.03404791 0.036650065
0.118971586 -0.009895441 -0.13722311 0.12930332 0.06570552 0.07783674 -0.17712852 0.11428082
-0.15995581 -0.04083488 -0.18470336 -0.41284847 0.031761806 0.15523599 0.0666643 -0.0065355855
-0.30246612 -0.02326028 0.061607383 0.13546702 0.0123711005 -0.042400472 -0.08252654 -0.042988446
0.029977608 -0.111688554 -0.15803121 0.058799554 -0.027039606 -0.08412803 -0.22847174 0.12837902
-0.037334252 0.061637685 -0.10142241 -0.15658394 -0.093599536 -0.2114281 -0.04188498 -0.14655796
-0.08329586 0.073265254 0.2607715 -0.12513718 -0.11935744 0.16777779 -0.13505116 0.021541908
-0.055035025 -0.09958673 0.068842486 -0.16417547 -0.06712345 -0.07483033 -0.27107218 0.017678358
-0.040853094 0.15181826 -0.12124004 0.016288921 0.08902888 0.033756003 -0.022201613 0.024869028
-0.078247 -0.11167941 0.009088386 0.0010853927 0.10168737 0.024519408 0.07151667 0.07014544
0.08838512 -0.16873913 0.2699476 0.04154975 -0.023467317 -0.0013471119 0.09548171 -0.21032302
0.31094813 -0.10482637 0.22556074 -0.026434993 0.006996807 0.069712065 -0.10702109 0.13868985
0.051516626 0.14372112 -0.0036394238 -0.02724609 -0.102087 0.04069875 -0.059718456 0.14805277
0.08354359 -0.10543009 0.030085899 -0.030063977 0.00021937068 -0.103376426 -0.05692296 -0.03508806
0.22033164 0.22349238 -0.132461 -0.21018605 0.097392835 0.106668286 0.17622907 -0.04479371
-0.034661006 -0.029147793 0.007322046 0.049765818 0.20063797 -0.110186435 -0.28645957 0.021603579
0.019287296 0.058534574 -0.112712756 -0.038367257 0.17052709 -0.25329676 0.012359282 0.013767212
0.33282107 -0.37131718 -0.037892792 0.16126066 -0.10063717 -0.08668521 -0.0079788305 0.09841287
0.13252974 0.15086806 -0.17989849 -0.41166183 -0.052797027 0.018270282 0.22106007 -0.037212823
-0.085910864 -0.24931909 0.17090449 0.029649196 0.036034837 -0.06978357 -0.27504307 0.045908608
-0.23884678 0.03283215 -0.02998773 0.081593834 0.15224317 -0.07804734 0.0714751 -0.1665952
-0.23924692 0.3001561 -0.09108671 -0.1343389 0.0908516 -0.42426336 -0.027909864 -0.018745862
0.032495286 0.031439316 0.21733284 0.02239575 -0.053535227 0.1943711 -0.034846965 -0.14495677
0.09571011 -0.16791974 -0.26817867 -0.07190257 0.08207949 -0.088174485 -0.0029758604 -0.083605565
0.10794722 0.26471007 -0.16570522 0.035058837 0.3610241 0.04828531 0.13684788 0.13137092
-0.0066528753 -0.01999975 -0.022496056 0.2938303 0.12505253 -0.16875334 -0.027817916 -0.06329686
0.025747027 -0.007660869 0.12888892 0.09503589 -0.03987075 0.13679941 0.0031537118 -0.0026175706
-0.00032291716 0.08164281 -0.005837549 -0.26949573 -0.012932932 -0.12823723 -0.09347494 0.122333795
0.20587927 0.242436 -0.05059225 -0.2065022 0.12085899 0.006143227 0.29604632 0.0325382
0.10134883 -0.28537408 -0.15473203 -0.19385186 -0.032109186 -0.23407674 -0.024723701 0.03985769

actor.2.bias f4 [128]
00000000: 647a eebe a179 aebe a021 e03d 05eb 7bbc
00000010: 8ad4 6abe cfac 7ebe 76e7 933e a735 f4bd
00000020: 64b1 22be 6c10 a4bd 1b10 e9bd acae 8fbe
00000030: 0e0f 823d dcbf 7dbe 5414 82bd 4c1a 00be
00000040: 7a0b 3dbe 832a 4dbe 7b1e afbd 60b6 a3bd
00000050: 27f3 88be 26d2 8ebc be1a bfbd b4c9 ebbd
00000060: 2c61 dcbe 55cd babe 8219 05be 1ee2 88bd
00000070: 6919 35be cb19 3fbe b646 d3bc 0f9a e1bd
00000080: 4087 3abd d682 953b 9b69 da3c 0228 abbe
00000090: 7ab6 3ebe 0d65 bb3c 5a03 ad3d 32eb aebd
000000a0: 1a7d 17be 2f76 a6bd dfd9 ba3d 8f7a aebe
000000b0: 6901 003d b472 45be cf10 50bd 126e c7be
000000c0: d56d 8dbe af44 633d 7dd2 b4be 8894 bebe
000000d0: 3393 cbbe 3f46 08bb 12d5 2fbe 9023 50be
000000e0: 66b3 373c 6a9c 7fbe 8f06 94bd 3ca8 bbbe
000000f0: ba86 47be 5dda e13c 7225 ebbd 4f72 093e
00000100: fe6b af3d 5471 c0be e1a4 85bc 8474 74bd
00000110: a167 19be 7ee0 38be f725 acbd ae38 a83b
00000120: f203 25be c324 3bbe 1de0 943b df3c d4bd
00000130: 113a 8d3d 7aee 42be 12ed 3bbe a373 a3be
00000140: e6e6 92be a3fa 90bc fb89 11bd 5cf3 cbbe
00000150: 03ee 01be 1b00 e4bd 8dcf 35be 60f6 bbbe
00000160: 02fe 943d 2fb7 a0be 6ceb 233e d254 80bd
00000170: b608 02bd ec6f 28bd 3cc2 e0bd f2a0 31bd
00000180: bf27 8cbe 75db dbbe 1517 2b3d d5e4 dfbd
00000190: 68b4 52be 2dcf 23be d07f ab3c e167 00be
000001a0: 9859 8bbd 0357 dabc fc7c 9fbe 0388 1d3d
000001b0: 7a5d 9fbe a1a5 dbbd 4380 873a 32be 06be
000001c0: a3b0 88be aa91 0ebe 6728 b13c a8ae 0e3c
000001d0: 64a2 8fbe 791c d1bc d1ad 18be a39d 47be
000001e0: 0742 7abe f665 30bd 3f12 3ebe 55a4 6f3d
000001f0: 151a f73c 21a4 98bd ddd1 3cbe 9903 f2bc
-0.46577752 -0.3407717 0.109439135 -0.015375857 -0.2293264 -0.24870609 0.28887528 -0.11924296
-0.15887982 -0.08010945 -0.11380025 -0.28062952 0.06350528 -0.2478022 -0.063515335 -0.12510031
-0.18461409 -0.20035748 -0.085507356 -0.0799377 -0.2674801 -0.017434191 -0.093312725 -0.11513081
-0.43042886 -0.3648478 -0.12998012 -0.066837534 -0.17685474 -0.18662183 -0.025790554 -0.110157125
-0.04553914 0.004562716 0.026661685 -0.3342896 -0.18624297 0.022875333 0.08447905 -0.08540954
-0.14793816 -0.081280105 0.09123587 -0.3407788 0.031251345 -0.19282037 -0.05079728 -0.38951164
-0.27622858 0.055485424 -0.3531684 -0.37222695 -0.39760742 -0.0020793823 -0.17171124 -0.20326066
0.0112122055 -0.24962011 -0.072278135 -0.3665179 -0.19484988 0.027569944 -0.114817515 0.13422512
0.0856552 -0.37586462 -0.016313972 -0.05968143 -0.14980938 -0.18054387 -0.08405679 0.00513371
-0.16114786 -0.18275742 0.004543318 -0.10363173 0.06895841 -0.19036284 -0.18352154 -0.3192416
-0.28691787 -0.017697638 -0.03553198 -0.39834106 -0.1268845 -0.111328326 -0.17754956 -0.36711407
0.07275011 -0.31389758 0.16007775 -0.06266178 -0.03174659 -0.041122362 -0.10974547 -0.04336638
-0.27374074 -0.4294087 0.04177006 -0.10932318 -0.20576632 -0.15997 0.02093497 -0.12539627
-0.06804198 -0.026652819 -0.31150043 0.03845979 -0.31126004 -0.107249506 0.0010337908 -0.13158491
-0.26697263 -0.13922754 0.02162571 0.0087086335 -0.28053582 -0.025526272 -0.14910056 -0.19493727
-0.2443925 -0.043065988 -0.18561648 0.05850633 0.030163804 -0.0745318 -0.18439431 -0.029542731

actor.4.weight f4 [128, 128]
00000000: 5f8e 84bd e2f2 d0bc 2b09 533d 6b8a acbc
00000010: 5d4e 283d 598d 663d b54f 7d3a 8b73 bfbe
00000020: 7f5a 453d 1cfd c23d 9768 63bb 9bf0 e93c
00000030: 53fe 173d 737e a33c 0b7a f1bd d91e fd3d
00000040: d8b6 8fbc ad29 79bd 4db1 e53d 852e 3b3d
00000050: 29d7 58bb ceb7 27be be2e 7abd 6de7 2bbe
00000060: f38a 85bd bb5d c5bd e0aa bc3d 1cdb 163e
00000070: ac29 cc3c e014 50bd 9023 db3d abc8 93bd
00000080: cca1 2c3c 1c8a bdbc b370 e2bd ca25 7abd
00000090: ccbf 20be a3a6 03be 4395 51bd e753 9abd
000000a0: c01d ca3a f735 eabd f871 04bd 5c74 1cbd
000000b0: f7af 38bd 0fd7 233e 3986 f5bc a265 8abd
000000c0: 29bb a53c c399 a93d ac83 04be db4c bbbd
000000d0: 8440 b2bd 6998 833c 6d76 2ebe d345 fdbc
000000e0: 07c5 a03c 1b3f 203e a174 24be 4d53 56bd
000000f0: 6ac5 6abd bef2 1bbe 0f2a bd3d e8ec 1d3e
00000100: 6af6 023e d3df 913d 40d6 2fbe 3890 613d
00000110: 0be5 ebbd f413 e43b dc99 c23d b7fb 3abd
00000120: 9a15 8abd 53d8 72bd 06fa 7a3a 56b6 443d
00000130: 4834 33be 4639 863e d6f7 4ebe 52c2 81bd
00000140: f425 88bd 5675 e63c 2072 3cbd db9d f63d
00000150: da01 a33d 47c0 4c3c 037f 953c b59b 383c
00000160: befe 26bd 7db5 dbbd 3d61 97bc a80e de3d
00000170: 7154 6cbd 516c 77bd c222 debd a29d acbb
00000180: 3c27 e53d 3220 113e b25d ddbd 9fa7 ea3c
00000190: 5d55 cdbd 1d49 c2bc 0eb3 dd3c 2c39 a2bd
000001a0: 5864 a53c 844e ae3c 5b2f 4cbd befb d93b
000001b0: b939 c7bd cc28 f6bd 7f59 b9bc bf31 99bd
000001c0: 0d1e cabd 4b03 18be c941 423e c938 0ebd
000001d0: f657 75be fc0d 3fbd de55 c33d 189d ea3d
000001e0: 2c31 f93d 705b 0fbe dad2 35bd b800 293e
000001f0: 5b9f 923c 709c a5bd 72c0 eebb 209e fd3d
00000200: 58a1 38bc 9e9b 003d b483 edbc 1f91 c23c
00000210: 00e9 8a3e cc7c b63c 3a5e a7bd 2c44 dcbd
00000220: fe0c 8bbb 7f7d 4c3d 473b d9bd 97d0 24be
00000230: b6d7 a3be 3043 863e dc35 be3b fd6e 653d
00000240: 87cd 2e3e d665 103e ed47 94bd 496b c3bd
00000250: e3b6 04bd 8090 37bd 7c70 fc3c c6f2 03bc
00000260: 14ab af3d 086b 3b3d a04c dcbd e842 a8bd
00000270: 643e 363a e81b febc 63b4 033d 1c51 253e
00000280: 01b8 82be ef83 4ebe b432 9ebd 88e2 ba3c
00000290: e364 f1bd 1a6b 0e3e b46e ff3c b2a3 fcbd
000002a0: 3c45 81be bd6c c2bd 4947 4abe 0c08 97bd
000002b0: 8328 8fbd 5eeb a8bb 5cf8 bcbc 75b0 203e
000002c0: 8af3 963d 136a d43d c1ef 683d d08d 60bd
000002d0: 6a2e 12bd d076 c73d 91e8 dabc 27c1 b23d
000002e0: a86e f8bc 4e50 85bd 0646 15be 6de9 d3bc
000002f0: 2c57 6c3d 1a5f b1be 807a da3d 4364 bebd
00000300: 22c6 7f3c a28b 2dbe a779 b5bd 7692 be3d
00000310: 2297 983c fe6e edbd 0665 ad3b 89dd 413d
00000320: b212 133e 87f1 393e 1db5 903d 4ebf 2f3e
00000330: 1ed1 323d af7b 4fbd c288 4abd 2987 73bb
00000340: d5e0 c33d 6641 babb bdbc 0ebc 7d2b 14bd
00000350: adac 27be 9b87 893c a74e b1bd 6fa7 5c3e
00000360: 30f1 3d3c b8c5 5f3e dd2c 47bd df5a 693e
00000370: d6ca 5e3d 2d31 1dbe a2b9 b1bd 8780 6dbc
00000380: daea 24be 618d a73d 728b 06bd c781 53bc
00000390: 8d09 cfbd 092a 6c3d 935f b5bd 0110 8ebc
000003a0: 9f74 1dbe 4b71 1c3e 2d96 583e 891a cc3d
000003b0: b4f7 1c3e b349 5a3d c3d7 f93d 59ff 6b3d
000003c0: 9d6d 0a3e a08a 24be 4387 043e 9894 08bd
000003d0: 49b8 e4bd 9c51 283e 2313 80bd 9f48 e63d
000003e0: fc33 aebd 6cc9 f8bd f6de 6abc 3eed 2abe
000003f0: 19f3 f0bd 880c ea3d cc38 79bd edca a83d
-0.06472468 -0.02550644 0.051522415 -0.021062097 0.041090358 0.056287143 0.00096630614 -0.3739284
0.048182007 0.09520933 -0.0034699792 0.028557112 0.037107777 0.019957757 -0.11790856 0.12359399
-0.017543241 -0.06083076 0.11215458 0.04569866 -0.003308723 -0.1637871 -0.061079733 -0.167875
-0.06520643 -0.09637018 0.09212279 0.14732021 0.024922214 -0.050801158 0.107001424 -0.07216009
0.010536622 -0.023137145 -0.11056652 -0.061071195 -0.15698165 -0.12856536 -0.051167738 -0.07535534
0.0015420243 -0.11436074 -0.03233525 -0.038196906 -0.04508969 0.16000007 -0.029971229 -0.06757666
0.020230846 0.08281281 -0.12940854 -0.091455184 -0.08703712 0.016063886 -0.17037363 -0.030917084
0.0196252 0.15649073 -0.16060115 -0.052325536 -0.057317175 -0.15229318 0.09236538 0.15422404
0.12789312 0.07122769 -0.17171574 0.05506918 -0.11518296 0.0069603864 0.095020026 -0.04565021
-0.067424014 -0.059288334 0.00095739996 0.04802545 -0.17500412 0.2621557 -0.2021173 -0.06335892
-0.06647864 0.028132122 -0.046007276 0.12041827 0.079593375 0.012497014 0.01824904 0.011267592
-0.040770285 -0.107279755 -0.018478984 0.10842639 -0.057697717 -0.060406033 -0.10846473 -0.0052678147
0.11189124 0.14172438 -0.108088866 0.028644381 -0.100260474 -0.023716504 0.027062919 -0.07921061
0.02018945 0.021277674 -0.04984985 0.0066523245 -0.097278066 -0.120195 -0.022625683 -0.074801914
-0.09869013 -0.14845006 0.18970408 -0.034722123 -0.23959336 -0.046644196 0.09537862 0.114557445
0.12167582 -0.13999724 -0.044390537 0.1650418 0.017898252 -0.08086479 -0.007286125 0.123836756
-0.011268936 0.031398408 -0.028993465 0.02375084 0.2713089 0.022276305 -0.08172269 -0.1075519
-0.004243492 0.04992437 -0.106070094 -0.16095196 -0.32000512 0.26223135 0.0058047604 0.05601405
0.1707059 0.14101347 -0.07240281 -0.095419474 -0.032400977 -0.04481554 0.030815355 -0.008053487
0.085775524 0.04575637 -0.107568026 -0.08215886 0.0006952046 -0.031019166 0.032154452 0.16144222
-0.2553101 -0.20167516 -0.077245146 0.022813097 -0.11786821 0.13908044 0.031180717 -0.1233591
-0.25248134 -0.094933964 -0.19753756 -0.07374582 -0.06990149 -0.005155011 -0.023067646 0.15692313
0.0737067 0.103717946 0.056869272 -0.054822743 -0.035688795 0.097394586 -0.026722224 0.08728247
-0.030326203 -0.065094575 -0.14577493 -0.025868142 0.05770032 -0.3464287 0.10667896 -0.09296467
0.015611203 -0.16947797 -0.08861094 0.09305279 0.018626753 -0.11593436 0.005291584 0.047330413
0.143626 0.18158542 0.070657946 0.1716282 0.04365646 -0.050655063 -0.04944683 -0.003715942
0.09564368 -0.0056840656 -0.008711991 -0.036174286 -0.16374464 0.016788295 -0.0865758 0.21548246
0.011593148 0.21852767 -0.04862677 0.22788571 0.05439266 -0.1535079 -0.08677985 -0.014495975
-0.16105214 0.08181263 -0.03284783 -0.012909359 -0.101092435 0.057657275 -0.0885612 -0.017341616
-0.15376519 0.15277593 0.21151038 0.09965999 0.15328866 0.05329294 0.121993564 0.057616565
0.13518377 -0.16068506 0.12942223 -0.033344835 -0.11167962 0.16437382 -0.0625365 0.1124432
-0.08506009 -0.12147793 -0.014335385 -0.16692063 -0.11765117 0.114281714 -0.06084518 0.0824183

actor.4.bias f4 [128]
00000000: 3c7e 6bbc b566 193d e629 68be bf29 3fbe
00000010: b549 febc d519 97be b291 8abb 5429 afbd
00000020: 892c 35be 9dfb 5ebe 2069 39be b2a3 dcbd
00000030: 620b acbd 5c68 edbd 92ef 833c 315c 07bd
00000040: 4304 68be a4ee a4bd 3a94 9ebe bc5b 0dbe
00000050: a129 e6bd 9fe4 25be 8333 95be 175a 8abd
00000060: 66d6 d5bd b6d5 61be 0fbf 17be 10aa 16be
00000070: 2c1f 37bc b40f d6bd 4887 10ba 9af6 3a3b
00000080: b68c 98bd 151e 0cbe 9a40 86bd 57e6 bdbd
00000090: b1d3 8abe 0ae3 25be 7cac 86be 9ad7 16be
000000a0: 1430 44be 5290 95bd 0c10 37be 61e6 26be
000000b0: c01a 14be 56ad b63c b6d7 fbbd ce6b 04be
000000c0: b163 d8bd deaf c3bd 3c3a 34be 13db eebd
000000d0: ce37 81bd f761 013d 80f9 43be 9257 49bd
000000e0: 129a 85bc 1ed2 243c 2b66 9dbd 3974 19be
000000f0: 4935 99bd 434f 9abe 2787 59be f958 67be
00000100: a69b 5dbd e1e1 07be e7a5 6cbe c1e1 273d
00000110: 3dec cabd 3c1f 0bbc b1fd bdbd 5a42 50be
00000120: 8bee abbd 1002 fcbd 3cca 13be 1245 18be
00000130: a3dd e2ba 2baf c7bd e286 0fbe 8eb9 43be
00000140: 0313 a2bd 3a55 00be 9534 4ebe a05a 1ebe
00000150: fb43 4ebd 01f2 aebe e13d 4bbc e7fd b73c
00000160: eb53 12be a78c 57be 38d4 d4bd 3447 26bd
00000170: ffd5 c9bd c864 dfbd 3d1b 79be 6a91 18be
00000180: a249 9fbc 6e20 26be 7214 b8bd 2d55 8e3d
00000190: 6e4b 5fbe c8c0 36be 03bd a9be c27a fdbd
000001a0: 1721 bdbd cafc 34be e95f b7be 6e23 313d
000001b0: bbd0 39be 1ba0 2abd a40a 13be 941a 8abe
000001c0: 3bf2 063d 2d14 3cbe ae03 bfbc 9a98 82be
000001d0: 3804 3dbe 86c4 c0bd cfb5 21be 76b8 693d
000001e0: 2703 74be e96e 4cbe eee1 053e 082d 02bd
000001f0: 60ca 6fbe 6dac b03c 814a 06be d304 75be
-0.014373358 0.037451465 -0.22672233 -0.18668269 -0.031041006 -0.29511896 -0.004228794 -0.085528046
-0.1769277 -0.2177567 -0.18106508 -0.1077341 -0.084006086 -0.115921706 0.016105447 -0.033046905
-0.22657876 -0.080533296 -0.30972463 -0.13804525 -0.11238409 -0.16200493 -0.29140863 -0.067554645
-0.10441284 -0.2205418 -0.14818977 -0.14713311 -0.011176866 -0.10452214 -0.00055133225 0.0028528334
-0.074487135 -0.1368335 -0.065552905 -0.092724495 -0.27114633 -0.1619989 -0.2630347 -0.14730683
-0.19158965 -0.073029175 -0.17877215 -0.1629882 -0.1446333 0.02229945 -0.12297003 -0.12931749
-0.105658896 -0.095550284 -0.1760034 -0.11662879 -0.06309472 0.031587567 -0.19138145 -0.04915578
-0.016308818 0.0100598615 -0.076855026 -0.14985742 -0.074808665 -0.30138597 -0.21242963 -0.22592534
-0.054103516 -0.1326976 -0.23110162 0.04098678 -0.0990834 -0.008491334 -0.092769034 -0.20337811
-0.08395108 -0.12305081 -0.14432615 -0.14870098 -0.0017308485 -0.097502075 -0.14016297 -0.19113752
-0.079137824 -0.12532511 -0.20137246 -0.15464258 -0.0503578 -0.3416901 -0.01240489 0.022459937
-0.14289825 -0.21049748 -0.1039204 -0.04059525 -0.0985527 -0.109078944 -0.24326797 -0.14899221
-0.01944429 -0.16223308 -0.08988275 0.0694984 -0.21806118 -0.17846978 -0.33152017 -0.1237693
-0.09234827 -0.17674556 -0.3581536 0.04324668 -0.1814603 -0.041656595 -0.14359528 -0.26973403
0.032945853 -0.18367071 -0.023317184 -0.2550705 -0.1845864 -0.09412484 -0.1579201 0.05706068
-0.23829328 -0.19964184 0.13074467 -0.031781226 -0.23417044 0.021566594 -0.13114358 -0.23927622

actor.6.weight f4 [12, 128]
00000000: 0c77 a6bc ac5e 3fbc b716 9fba acfb 63bd
00000010: 1e9b 20bd a909 133d 5054 563d f8c3 a53c
00000020: f6e6 c1bc be13 0cbd 569c 313d 0cb1 593c
00000030: 0345 343d 80c4 f63d ca2c 7f3d bb39 d63b
00000040: 0e79 8a3d 2585 923d fed9 23bc 2857 b23b
00000050: 2972 ea3d 56af 1b3e 02c6 cb3d 2b3c 94bd
00000060: dcc7 3a3c 51ad 983c 5d57 0c3e a1ef 583c
00000070: a0a6 b8bb b871 8f3a 6751 68bd 5d9f e6bd
00000080: ae89 eebd 061c b1bd d7a4 e4bd 1b81 b73d
00000090: 37a1 58bd 30e2 5a3c 9026 6d3d 8de9 0abb
000000a0: 4aaf 803c 5dec 54bc d970 14bd 97fd 333d
000000b0: d376 983d c18e 913c 6ba6 03bb cc83 0e3c
000000c0: 8bf5 87bc ba63 c8bd 8e3a 93bb 690e 9cbd
000000d0: 3aac 6d3c c0f8 74bd 7271 653d caa3 7cbd
000000e0: 0ef7 35bd 0523 d6bd 7bb4 c2bd 8cb0 15bd
000000f0: 36fd 72bd 0229 9b3c de69 37ba bea7 c2ba
00000100: cd9f da3d 833a 08be db40 873d 8bbc 8abd
00000110: d27f 8cbd 4817 653d 0a91 873c 512d d53d
00000120: 14d6 a63c f6ed f53c fdb5 f33b e877 c23d
00000130: b039 91bd d86e 4cbc 478f 363d 5e11 50ba
00000140: 6feb b9bb fd5c e6ba 4970 103e f201 1e3d
00000150: 9369 083b 52ce 043e 0972 ae3b 6c90 19bd
00000160: 8ebf e53c 8601 18bd 14fb 4e3c 9700 c0bd
00000170: 53f3 0f3d 83f7 fdbb 69fd 403d 4509 503c
00000180: a671 1ebd 7fec a4bc 3ffd 99ba 49a3 93bc
00000190: 3727 d83c 5a75 f93c 3717 0e3e 1fc3 9dbc
000001a0: db61 ef3c 1f15 093e be56 243d 787b 673d
000001b0: 5849 673d 52e4 c33d 699c 38bd cbcd 063d
000001c0: 5073 5abc 9049 93bd 2234 bdbd e127 083d
000001d0: 71bb c23c 5d73 de3c 9b3a 12bd ceaa 5ebc
000001e0: 945c bfbd 670b 2f3d 1bb3 4cbd 7a8a c1bd
000001f0: fe66 523c ed6b 44bd e0ce 9f3c 67cb 873d
00000200: 6cf2 abbd e8b8 273d fc98 263e b2d4 b73d
00000210: b95c 983d c1e7 18bc 96de 32bc 0e38 903d
00000220: 44a2 f23d 0b45 00bd 98f0 39bb 083f d7bd
00000230: 6268 6bbd 08f8 b3bc fd65 b1bc bb0b ccbd
00000240: b24b c0bd b6f8 5bbd d770 f1bd b995 dc3b
00000250: 318b dabc 6a2c bbbd 036a 2e3d cbea d83d
00000260: 6cf0 ff3c 2000 82bd 9aba 9b3c e11c 29bc
00000270: d343 12bd bad9 03bd 5f86 51bc 7899 c63c
00000280: 73ac b03b 4b32 dd3d 1a94 fd3a 08de a7bd
00000290: 847d 07be 690e ce3d 271d 46bd e2d6 23bb
000002a0: 9197 a4bd 74ff 203d 3f80 2b3c 9591 01be
000002b0: 4a04 97bc f813 023e e3f1 e53c 4cf5 7f3c
000002c0: 825e 16bd 3eee 123e 637b d73c 12fc 7ebd
000002d0: f627 5d3d 2543 8bbc 8eed 113d 66fa 8f3a
000002e0: 47a4 27bc 2d4c 3e3c 70bc 693d 8ace a93d
000002f0: 0032 e83d 0c02 4ebd a85c 823d 7181 c13d
00000300: c49b 2dbc 4585 a73d b080 193b 01be 6b3d
00000310: d01b e5bc 535d ad3d d4ca 043c ad96 203d
00000320: 9240 7fbc 1683 87bc a4f2 74bd 59c6 10bc
00000330: 2cba cdbb 0400 e93d 7dc1 1bbd 2165 14bd
00000340: 5ef7 a1bd 106d 143d 9d92 08bd 7f88 ff3b
00000350: 9619 0abd dea9 a1bd 673d f7bc 8e59 7ebd
00000360: fd46 a7bd 4f40 b43d ee7a 69bc 4c92 943d
00000370: b9b1 233d 1b50 70bd 4eef 8a3d 37ea a5bc
00000380: cea0 473c d5e1 b43d f4c2 343d 2cfd 3d3d
00000390: 5dd6 debc c04f 1a3c 9744 81bd acc7 27bd
000003a0: 997d 4ebd 17ab 61bc 80ce eebd ce9b daba
000003b0: 262f 26bd a3cb b53c c433 f0bc 7282 7ebd
000003c0: 0522 83bd fdfc 453c 75fb 763b 0ccc 04bd
000003d0: 44b2 9abd bfe5 033d d053 ce3c 31b0 3b3d
000003e0: f118 a5bc a927 7ebc b486 2ebd 15c3 bd3d
000003f0: 1739 8e3c 6fd1 aebc 4848 d53d f7c8 55bd
-0.020320438 -0.011680286 -0.0012137507 -0.055659935 -0.03921043 0.035897885 0.0523265 0.020235047
-0.023669701 -0.034198515 0.043361984 0.01328684 0.044011127 0.12049198 0.062298574 0.0065376437
0.067613706 0.071543016 -0.010000704 0.0054425187 0.114475556 0.15203604 0.09949876 -0.07238039
0.011400189 0.018637331 0.13705201 0.013240726 -0.0056350976 0.0010943925 -0.056718256 -0.11260865
-0.11647354 -0.08647923 -0.11164253 0.08960172 -0.05288812 0.013359591 0.057898104 -0.0021196336
0.015708584 -0.0129958065 -0.036240432 0.043943014 0.07444539 0.017768266 -0.0020088207 0.008698415
-0.016596576 -0.09784646 -0.0044930642 -0.07619936 0.014506394 -0.05980754 0.056016393 -0.06167964
-0.044425063 -0.10455898 -0.0950708 -0.03654532 -0.059323512 0.018940452 -0.00069966714 -0.0014851016
0.10675011 -0.1330357 0.06604167 -0.06774243 -0.06860317 0.055930406 0.016548652 0.10409034
0.020365752 0.030020695 0.007437466 0.094955266 -0.07091081 -0.012477599 0.044570234 -0.0007937158
-0.005673818 -0.001757532 0.14105333 0.038576074 0.002081488 0.1296933 0.0053236526 -0.037491247
0.028045442 -0.037110828 0.012633104 -0.093751125 0.03514416 -0.007750453 0.04711667 0.0126975225
-0.038682602 -0.020132301 -0.0011748447 -0.018022196 0.026385887 0.030451465 0.13876043 -0.01925808
0.029221466 0.13386963 0.040121786 0.056514233 0.05646643 0.09565033 -0.04507104 0.032911103
-0.013333157 -0.07191765 -0.09238459 0.033241156 0.02377102 0.027154619 -0.03570042 -0.013590528
-0.0934383 0.042735483 -0.049975496 -0.094502404 0.012841938 -0.04795449 0.019507825 0.06630593
-0.08395848 0.040947825 0.16269296 0.08976115 0.074395604 -0.009332598 -0.010917326 0.070419416
0.11847356 -0.031315845 -0.0028372165 -0.10510069 -0.057472594 -0.021968856 -0.021655077 -0.09963175
-0.09389438 -0.053703986 -0.117891006 0.0067317155 -0.0266777 -0.09139331 0.04258157 0.10591658
0.031242572 -0.0634768 0.019009877 -0.010321827 -0.035709213 -0.032190062 -0.012788384 0.024243101
0.0053916513 0.10800608 0.0019346506 -0.08196646 -0.13231474 0.10061342 -0.048367646 -0.0024999906
-0.080367215 0.03930612 0.010467588 -0.12653191 -0.018434662 0.1270293 0.028069442 0.015622448
-0.036711223 0.14348695 0.026303953 -0.06225211 0.053993188 -0.01699979 0.03562694 0.0010984659
-0.010232038 0.011614841 0.057064474 0.08291347 0.11337662 -0.05029492 0.06365329 0.09448517
-0.010596219 0.08179716 0.002342265 0.05755425 -0.027967364 0.08465066 0.008104999 0.039206196
-0.01557936 -0.016541999 -0.059801713 -0.008836352 -0.006278297 0.11376956 -0.03802632 -0.036229257
-0.0790851 0.036236823 -0.033342946 0.007798254 -0.033715807 -0.07893728 -0.030180646 -0.062097125
-0.08167837 0.088013284 -0.0142505 0.072544664 0.03996441 -0.058670145 0.06783925 -0.020253284
0.012184335 0.088321365 0.044131234 0.04638402 -0.027201826 0.009418428 -0.063119106 -0.040961906
-0.050412748 -0.013773701 -0.116604805 -0.0016678513 -0.040572308 0.022191828 -0.029321559 -0.06213612
-0.06402973 0.012084243 0.00376865 -0.032421157 -0.07553533 0.032201525 0.02518645 0.045822326
-0.020153495 -0.015512385 -0.04260893 0.092657246 0.017361207 -0.0213401 0.10414177 -0.052193608

actor.6.bias f4 [12]
00000000: c2b3 fabc 4dc7 7fbd 3da6 11be 3b39 a1bc
00000010: 5d6c f5bd fe2d 833c 8719 c4bd d881 f53d
00000020: 7834 0dbe 98c7 e33c 1889 4ebd 74f1 09bd
-0.030603293 -0.062445927 -0.14223571 -0.01968061 -0.11983559 0.016013142 -0.095751815 0.11987656
-0.13789546 0.027805135 -0.05042371 -0.033677533

critic.0.weight f4 [128, 48]
00000000: a4a4 0a3f 3aac 0b3f 047c b13e 8156 e3bc
00000010: d83a 193e a3be 8bbe 7701 b83e 3279 c43f
00000020: 5143 663e 8d73 1a3e 6d0e 89be b544 27be
00000030: 48ff 8dbf 3ce0 6cbf dc8c 0dbf 831c 193f
00000040: 6e07 bb3e 1d2f 0b3e 6ba9 863e 6e80 803d
00000050: 16a7 463f a118 c73d e944 1b3d eb53 ce3e
00000060: 36db 34bc a34d 82bc 599e 8f3c 777a ab3a
00000070: 2a50 0ebc 90b7 163c b23e b63a 9506 473c
00000080: 0236 b23b 5d61 c13b 5031 2cbc 6274 9b38
00000090: 9742 493d f8f3 ab3c 38b6 2fbd 0eca 283b
000000a0: 58b5 483d a6ad 5a3c ff84 123d 30f6 5d3d
000000b0: a143 adbd e78f 5c3a aa44 233c 38f6 d9bb
000000c0: 8f8a babe f4e5 4cbe 735b 863e f242 18bd
000000d0: 9139 6e3d 268c 56bd 5746 2bbf 2a07 18bf
000000e0: 481f e9bb c76f bf3e 8f79 203f 9893 0bbe
000000f0: c1a2 a2be 22a8 253f 12ed e93d 4d60 bfbe
00000100: 7c2f 883f d572 e5be 6faf 37bf aacb 623e
00000110: b9f0 b93e 8276 4e3d e929 1f3e 9b70 493e
00000120: c9a2 8f3c bfe0 69bd 8fdb b6bc 810b 233d
00000130: a558 19bb 0c58 f83b 5e4f 8f3c e232 4fbc
00000140: 58ad a53b dc70 d93b 8410 8a3b ce8b 123c
00000150: c018 0fbc 78ce f3bc 8c5b 1b3b 1ccb a0bd
00000160: be00 e138 a742 8b3c ace3 193d c11a 0ebc
00000170: 96b5 0a3d b112 debd ed8a 81bd c851 463d
00000180: 3103 ea3c d5f5 8fbd 09b9 363e ccff 04be
00000190: 1e45 203d c946 7f3d f963 febd 0cbd 273f
000001a0: ccfc 333e 43fe 343e 6017 67bf d565 15bf
000001b0: 07b5 36be 87be b0be feb9 c4bd c760 803d
000001c0: 095f 3e3e 2d02 c4be d8e3 ea3d ad97 0c3d
000001d0: 934a 3d3e 4e03 f6be df48 d03b 58d5 5dbe
000001e0: c311 93bc 3953 e2bc af41 cdbc 490d 38bd
000001f0: 0e7b d03b a022 aab9 f427 2a3c e244 eb3c
00000200: 6a4e 21bc 9f2c ba3b a40c d3bb 3246 65ba
00000210: 6a42 b9bc 0788 ef3c 7af4 8ebb d1f4 f33d
00000220: e873 333c cb2a d13b 3b37 2dbd aea3 8bbd
00000230: 6588 673d 9a16 41bd 29cf df3c 0e35 89bd
00000240: cc98 d03d 7d86 89bd 643f 69be d110 18bd
00000250: eaea 1ebd 3816 15be a30e eb3e 3f53 8bbf
00000260: cca6 dcbd 12af 30bf e674 743e 3ea6 293e
00000270: bd99 553e 6fa5 533e 5c99 cd3e 6ce8 2c3d
00000280: 605f 2bbe d8c8 fe3d 85db b83e de0c 963e
00000290: fbfe 89be 89e0 873e ae51 78bd d63d acbd
000002a0: 539e 1ebc de81 abbc 8af1 50bc aa3b 25bc
000002b0: f99b 3e3c 836b b53a 1fb3 0c3c 3b55 933c
000002c0: ae13 babc f968 053b e01b 23bc 0988 e63a
000002d0: 986d 8bbd 8487 7d3d d52a cabc 11c3 333d
000002e0: 4f83 2cbd f1e5 31bd 53f6 43bd 26ac a23b
000002f0: 1a4c 5b3d 3e01 12bd d74c da3c 66f9 1bbd
00000300: 368d 9d3b 4d8d 76bd e92b 463e 5bcd 86be
00000310: ccae 8e3c 9226 f3ba efb9 64be 61fa a83f
00000320: 8f7f 15bf 8381 343e e0aa 8c3e 65ad a9bd
00000330: e1c4 ef3e 4d82 6abf 0ab1 853d 57e0 70be
00000340: 802a 2e3f 638d 44bf 4ac8 193d 8247 b53e
00000350: 8c66 253e 9d9f fcbe 5e99 e5bd d088 94be
00000360: 9b4d c5bd 64cd 9bbd 4de2 79bc 8fdc 7bbc
00000370: 5dc4 73bd da2c eb3c 5f3b e1ba b9a2 31bd
00000380: b48a db3c 36b4 b4bc 07fe d33c 75ee c6bb
00000390: 8f22 7f3e 3fed 313c 6e17 483e 0ee0 5f3d
000003a0: 5a5e 753d 49a7 99bd f469 253d 1228 073e
000003b0: 515f cfbb f808 92bb 0941 11bd b2f6 b1bd
000003c0: 319e fb3d bfe2 71bc b76a 2d3e 1030 bbbd
000003d0: 222e 393c a8a1 1e3e 007b 8ebf b10b 4e3f
000003e0: 7f6f 4f3d 4cdd da3e a753 503f e566 08bf
000003f0: 7448 b5be 039d 233e acbf 8bbe 1707 86be
0.5415747 0.5455967 0.3466493 -0.02775121 0.14963853 -0.27293882 0.35938618 1.5349486
0.22486617 0.15083142 -0.26768818 -0.16334803 -1.1093531 -0.92529655 -0.5529306 0.5980913
0.36529106 0.13592191 0.2630113 0.06274496 0.775987 0.097214945 0.037907515 0.402984
-0.011038592 -0.01590616 0.01753156 0.0013082762 -0.008686105 0.009199038 0.0013904183 0.012147565
0.005438567 0.005901499 -0.010509804 7.412654e-05 0.04913577 0.020990357 -0.042898387 0.00257552
0.049001068 0.013347065 0.035771366 0.05418986 -0.08460165 0.0008413777 0.009965101 -0.006651666
-0.36433837 -0.20009595 0.26241645 -0.03717322 0.05816037 -0.05237975 -0.66904205 -0.5938593
-0.0071143247 0.37389967 0.62685484 -0.13630521 -0.31764796 0.64709675 0.11422171 -0.3737816
1.0639491 -0.44814172 -0.71752065 0.22148004 0.3631647 0.050405987 0.15543331 0.19671862
0.017533677 -0.0570991 -0.02232149 0.039805893 -0.0023398784 0.0075788554 0.0174939 -0.012646409
0.0050560646 0.0066357683 0.0042133946 0.008944465 -0.008733928 -0.029761538 0.002370569 -0.0785124
0.00010728974 0.016999556 0.03757064 -0.008673371 0.03386458 -0.10843409 -0.06325326 0.048417836
0.028565975 -0.070293106 0.17844023 -0.12988204 0.039128415 0.062323365 -0.12421412 0.6552284
0.17576903 0.17675118 -0.9027004 -0.5835851 -0.17842494 -0.3452036 -0.09605788 0.06268459
0.1859094 -0.3828291 0.11469239 0.034324337 0.18485479 -0.48049396 0.006356343 -0.21663415
-0.017952805 -0.027627574 -0.025055734 -0.044934545 0.0063623255 -0.00032450724 0.010385502 0.02871937
-0.0098453555 0.005681589 -0.006440716 -0.00087461167 -0.022614677 0.029239668 -0.00436264 0.119119294
0.010952927 0.006383275 -0.042289 -0.06818329 0.05652656 -0.047140695 0.027320461 -0.066995725
0.10185394 -0.06715105 -0.22778088 -0.037125412 -0.03879825 -0.14559257 0.45909604 -1.088478
-0.107740015 -0.69017136 0.23872718 0.16567323 0.20859428 0.20668577 0.40156066 0.042213842
-0.16735601 0.12440652 0.3610498 0.29306692 -0.26952347 0.26538494 -0.06062477 -0.08410232
-0.009681302 -0.020935949 -0.0127529 -0.010085026 0.0116338665 0.0013841245 0.008587628 0.017984977
-0.022714462 0.0020356758 -0.009955376 0.0017588149 -0.06808013 0.061896816 -0.024678627 0.0438872
-0.042117413 -0.04343218 -0.047842335 0.0049643693 0.053539373 -0.035645716 0.026647968 -0.03807964
0.0048080934 -0.06019335 0.19352688 -0.2632855 0.017417334 -0.0018550924 -0.22336553 1.320141
-0.58397764 0.1762753 0.27474117 -0.082850255 0.46829894 -0.91605073 0.06527908 -0.23523079
0.680336 -0.7677824 0.037544526 0.3540612 0.161524 -0.49340525 -0.11210893 -0.2901063
-0.09633943 -0.076075345 -0.015251708 -0.0153724095 -0.05951344 0.02870791 -0.0017183832 -0.043368075
0.026799537 -0.022058588 0.025877966 -0.0060709068 0.24915527 0.0108597865 0.19540188 0.054657035
0.059904434 -0.0750261 0.040384248 0.1319888 -0.0063285013 -0.0044566356 -0.035462413 -0.086896315
0.12286032 -0.014763533 0.1693524 -0.091400266 0.011302503 0.15491354 -1.1131287 0.8048659
0.05064344 0.4274696 0.81377643 -0.53282005 -0.3540684 0.15977864 -0.27294672 -0.26177284

critic.0.bias f4 [128]
00000000: eb53 6dbe 59d5 5f3e 05f9 10be ae7d a8be
00000010: 7338 c03e c13f f8bc 3d30 fcbe 3641 e73e
00000020: 57f3 d83e 8957 f23d 5c5c 303d 0fc0 79be
00000030: d74a d8be 14d0 4fbf 8249 88be 434b 3bbf
00000040: 3896 11bf b683 603d d96d 36bf 01c9 7a3d
00000050: 7edb 93be 3923 09be dd4d 26be 08a3 67be
00000060: 159e 45be d2ab a13e 461d 873c ea01 edbe
00000070: 973b 813e 8058 50be 7a6c cd3d 8dd5 8a3e
00000080: a0a4 6d3d b05d 6bbe cf1a 08bf bb3b 37be
00000090: c5e1 e2be 60ac c3be ad1c 5e3e fe83 83be
000000a0: 7fa5 a3be 979e 0dbe 0152 a5be 48d8 163f
000000b0: 40f3 6fbe e67b b5be 7097 d8bd a663 c23e
000000c0: a891 3bbf 5e3a 07bf eeac 073c ba45 c6bd
000000d0: 7bd6 883e 5302 33be 94a3 a0be f2a1 a6bd
000000e0: 8b12 57be 0968 b1be b3c0 fbbb cbe9 8c3d
000000f0: 2e9f 15be a891 06be a2f9 cd3e 6920 1fbe
00000100: 47f8 93bb 07d4 b83e 4675 bdbe 2008 003f
00000110: d062 533e f74b 1b3e 69f1 b3be 8d88 d6bd
00000120: 0ee5 cdbe 4eb3 c4bd 6f51 883c 63d5 e83d
00000130: 85fb 1f3d 2afb ea3d f926 973e 0875 35be
00000140: ab72 5d3d d039 3abf 6439 543c b3f0 8dbb
00000150: 4eb4 313e 7ffb 1d3e 7529 d7be c136 ab3e
00000160: f635 ab3e d0da 7ebe 37a3 09be 9c12 7ebe
00000170: 8312 dcbe 021c 4fbc 1804 c3be 48a8 cfbe
00000180: 3af7 a53e 88cd fcbd be4a 7c3c de13 49bd
00000190: fe55 d53b c506 9a3e b510 d23d 52ef 27bf
000001a0: 3102 443e 3b4a 5f3d e6fc a83e 3835 cfbd
000001b0: f5cb e0be ab95 bb3e d94f de3c 86b8 673d
000001c0: e649 03bf 6d4a cbbd 6dc5 b5be c6bd 193e
000001d0: fd0f 7bbe c983 3bbf b3fd 90be 0fcb 43bf
000001e0: 3558 cdbd 6ee6 a73d 47b9 f0be 9559 bd3e
000001f0: d296 b23e 98bd a9be 6f7e 35bf 8602 14bf
-0.23176543 0.2185873 -0.14157493 -0.32908386 0.37543067 -0.030303838 -0.49255553 0.4516694
0.42373154 0.11833102 0.04305683 -0.24389671 -0.42244598 -0.8117688 -0.26618582 -0.73161715
-0.5686984 0.05481311 -0.71261364 0.06122685 -0.28878397 -0.13392343 -0.1624064 -0.22620785
-0.19298585 0.315764 0.01649345 -0.46290523 0.25240776 -0.2034626 0.10030456 0.2711605
0.058018327 -0.22984958 -0.53165907 -0.17893879 -0.44312873 -0.3821745 0.21690626 -0.2568664
-0.319622 -0.13830028 -0.32289127 0.5892377 -0.23432636 -0.3544609 -0.105757594 0.3796665
-0.7326913 -0.52823436 0.008280976 -0.09681268 0.26726136 -0.17481355 -0.313748 -0.08136357
-0.21003167 -0.34649685 -0.0076828836 0.0688053 -0.14611503 -0.13141501 0.40229517 -0.15539707
-0.004515681 0.36099264 -0.37003535 0.500124 0.20643163 0.15165697 -0.3514512 -0.10475264
-0.40213817 -0.09604512 0.016640393 0.11368825 0.039058227 0.11473687 0.2952192 -0.17720425
0.054064434 -0.72744465 0.012953136 -0.004331672 0.17353937 0.1542797 -0.42023817 0.3344021
0.33439606 -0.24888158 -0.13441168 -0.24811786 -0.42982873 -0.012640955 -0.3808906 -0.40558076
0.3241518 -0.123438895 0.015398679 -0.049091212 0.006510495 0.3008329 0.10257093 -0.6559955
0.19141461 0.05451415 0.33005446 -0.101175725 -0.43905607 0.36637625 0.027137684 0.05657246
-0.51284635 -0.09926305 -0.35502186 0.15013799 -0.24517818 -0.73247963 -0.28318557 -0.7648172
-0.1002659 0.08198248 -0.47016355 0.36982408 0.34880692 -0.3315246 -0.7089605 -0.5781635
